…
col 1 : min=-0.6048402344488562, max=1.5587217514124292, avg=0.021231432145855763
col 2 : min=-0.43768545994069014, max=0.35574673972247856, avg=-0.002345298172021455
col 3 : min=-0.5000000000009251, max=0.7179487179467909, avg=0.004695262493696305
creating keraslstm model...
____________________________________________________________________________________________________
Layer (type)                     Output Shape          Param #     Connected to                     
====================================================================================================
lstm_1 (LSTM)                    (None, 60, 256)       267264      lstm_input_1[0][0]               
____________________________________________________________________________________________________
dropout_1 (Dropout)              (None, 60, 256)       0           lstm_1[0][0]                     
____________________________________________________________________________________________________
lstm_2 (LSTM)                    (None, 60, 128)       197120      dropout_1[0][0]                  
____________________________________________________________________________________________________
dropout_2 (Dropout)              (None, 60, 128)       0           lstm_2[0][0]                     
____________________________________________________________________________________________________
lstm_3 (LSTM)                    (None, 60, 64)        49408       dropout_2[0][0]                  
____________________________________________________________________________________________________
dropout_3 (Dropout)              (None, 60, 64)        0           lstm_3[0][0]                     
____________________________________________________________________________________________________
lstm_4 (LSTM)                    (None, 60, 32)        12416       dropout_3[0][0]                  
____________________________________________________________________________________________________
dropout_4 (Dropout)              (None, 60, 32)        0           lstm_4[0][0]                     
____________________________________________________________________________________________________
lstm_5 (LSTM)                    (None, 60, 16)        3136        dropout_4[0][0]                  
____________________________________________________________________________________________________
dropout_5 (Dropout)              (None, 60, 16)        0           lstm_5[0][0]                     
____________________________________________________________________________________________________
lstm_6 (LSTM)                    (None, 60, 8)         800         dropout_5[0][0]                  
____________________________________________________________________________________________________
dropout_6 (Dropout)              (None, 60, 8)         0           lstm_6[0][0]                     
____________________________________________________________________________________________________
lstm_7 (LSTM)                    (None, 60, 4)         208         dropout_6[0][0]                  
____________________________________________________________________________________________________
dropout_7 (Dropout)              (None, 60, 4)         0           lstm_7[0][0]                     
____________________________________________________________________________________________________
lstm_8 (LSTM)                    (None, 60, 4)         144         dropout_7[0][0]                  
====================================================================================================
Total params: 530496
____________________________________________________________________________________________________

 training [time=10:00:00, iterations=67351, epochs=106] ... 
